neural_network_model.onnx (onnx, 16365 bytes, 7 tensors)

sequential_3/dense_15/MatMul/ReadVariableOp:0 f4 [10, 1]
0.00043486155 0.014007108 -0.0003769224 -0.0054193237 -0.016875824 0.00027996497 0.014092024 -0.0026733992
0.0018843509 0.00938299
00000000: 21fe e339 127e 653c ab9d c5b9 9594 b1bb
00000010: 2b3f 8abc 43c8 9239 3ce2 663c 3234 2fbb
00000020: 53fc f63a 1dbb 193c

sequential_3/dense_14/MatMul/ReadVariableOp:0 f4 [64, 10]
-0.1116324 -0.19330956 -0.01511493 -0.33596775 0.08634613 0.15938465 -0.13772893 0.061245207
0.07796182 0.08703007 0.14832841 -0.07014335 -0.22399084 -0.07285573 -0.06739516 0.0011787474
0.08055751 -0.09180148 -0.114011824 -0.13000828 -0.05424484 0.14999488 0.15707052 -0.35205147
0.03374965 0.09336985 -0.25355858 0.26700315 0.0090846075 0.06820186 0.12726633 -0.28314188
0.011875054 -0.2402692 -0.15711808 -0.25981903 -0.070509955 0.04133513 -0.07994352 -0.047296286
0.13331705 0.13141307 -0.025829013 -0.020110335 -0.045704596 -0.060667817 -0.058823895 -0.21326324
0.16148312 -0.04755385 -0.14170714 0.15239634 -0.2219715 -0.2790096 -0.2716811 0.13281134
0.14163427 -0.08292028 0.08198409 -0.056257945 0.26452124 -0.33344498 -0.20535812 0.106236525
-0.043268826 -0.0021004714 0.0459017 -0.26594448 0.11097081 -0.07150866 -0.31080812 -0.15122326
0.08547852 -0.1302287 0.09434069 -0.062050845 0.113401905 -0.087454535 -0.14317338 -0.23076129
0.21581943 0.028358845 -0.07899408 0.09012742 -0.26643962 -0.1390307 -0.028707068 -0.036156695
0.2320127 -0.31750548 -0.098776646 0.23252203 -0.05218047 -0.26458314 -0.24598505 -0.025838993
-0.27583042 -0.102575295 0.23410791 0.06400927 0.26265588 -0.008919261 -0.16603914 -0.22673695
0.19652933 0.11243029 0.15943421 0.111587964 0.03603974 -0.023923898 -0.05798523 -0.15212204
0.06510595 0.17616269 -0.038036786 0.21994002 -0.0814769 -0.036671992 -0.1298027 -0.020796431
0.1397233 0.055051535 -0.12213265 -0.003958536 -0.2450835 -0.09119789 0.09209035 -0.0054381965
-0.15433167 -0.24641182 -0.12194027 -0.07630786 0.046161503 0.14123566 0.2525174 -0.22417858
-0.046023972 -0.121786766 0.071380846 -0.2705105 0.053233825 0.28366628 0.06803292 -0.059127092
0.2916844 0.09466274 0.25147465 0.0324029 0.26090878 0.014640555 -0.15876219 -0.19508241
-0.0023550796 0.37814176 -0.3230649 -0.09436531 -0.11657781 0.21395783 -0.15401006 -0.13925056
-0.3519931 -0.109017156 -0.14338253 -0.34314266 0.12627016 0.06814749 -0.30887878 0.28695047
-0.12914771 -0.21294583 -0.19486178 0.26430947 0.04966888 -0.013974889 -0.052575313 0.050504725
0.2674864 0.08856008 0.06275304 0.016868839 0.21432737 0.3025038 -0.046332307 -0.24515574
0.321199 -0.1566504 -0.05755463 0.24142839 -0.25942996 0.1504452 0.18703191 -0.3026773
0.27013323 0.06599926 0.116832845 -0.06292985 -0.06399318 -0.045799304 -0.17715998 0.0028389196
-0.061881665 -0.3135145 -0.1408446 0.092206515 0.13554704 -0.31639677 0.15743022 -0.12424083
0.13704503 0.20861192 -0.13854125 0.35189345 0.27304283 0.15246846 0.08686603 0.10550275
0.017028688 0.031250622 0.026602931 -0.1893533 0.006026821 -0.1854485 -0.0053918795 -0.10644082
0.13727634 -0.14763519 -0.34592727 -0.08125479 0.043825593 0.02626633 -0.26725575 0.25224188
0.020207811 -0.09009517 0.039228488 -0.056325015 -0.2959322 0.2927866 -0.056509882 -0.21253152
0.0014093788 -0.38220945 -0.143258 -0.06520702 -0.050613005 -0.008323819 0.15808408 -0.0061330693
0.2228672 0.22316666 -0.19017343 -0.1864278 -0.0629003 0.107522406 -0.14491795 0.24042632
00000000: 879f e4bd f1f2 45be 9da4 77bc f703 acbe
00000010: 3dd6 b03d bb35 233e d008 0dbe 41dc 7a3d
00000020: 72aa 9f3d d23c b23d 67e3 173e 51a7 8fbd
00000030: db5d 65be 6335 95bd 7906 8abd 3380 9a3a
00000040: 56fb a43d 6a02 bcbd 087f e9bd e420 05be
00000050: d62f 5ebd 4298 193e 18d7 203e 1740 b4be
00000060: 133d 0a3d b138 bf3d 6ed2 81be a3b4 883e
00000070: 9bd7 143c 6bad 8b3d 1b52 023e f9f7 90be
00000080: 968f 423c 2109 76be 90e3 20be 0007 85be
00000090: 8667 90bd 064f 293d 6eb9 a3bd c0b9 41bd
000000a0: 4484 083e 2691 063e 5e97 d3bc 6ebe a4bc
000000b0: be34 3bbd d17e 78bd 53f1 70bd ae61 5abe
000000c0: d55b 253e d3c7 42bd ad1b 11be c90d 1c3e
000000d0: 7f4c 63be 59da 8ebe c919 8bbe b2ff 073e
000000e0: 9308 113e 1cd2 a9bd 46e7 a73d bb6e 66bd
000000f0: 546f 873e 4db9 aabe 6649 52be 8992 d93d
00000100: a73a 31bd 10a8 09bb 6c03 3c3d e029 88be
00000110: aa44 e33d 2273 92bd 3e22 9fbe 45da 1abe
00000120: 5d0f af3d ac5a 05be b135 c13d 0729 7ebd
00000130: 423f e83d 5d1b b3bd 0b9c 12be b04c 6cbe
00000140: c5ff 5c3e cf50 e83c a6c7 a1bd ba94 b83d
00000150: c66a 88be 105e 0ebe 162b ebbc 0b19 14bd
00000160: bd94 6d3e 1490 a2be 694b cabd 411a 6e3e
00000170: 30bb 55bd 7177 87be 81e3 7bbe 4cac d3bc
00000180: a539 8dbe ff12 d2bd fcb9 6f3e 4b17 833d
00000190: d57a 863e 1822 12bc 2a06 2abe bb2d 68be
000001a0: fc3e 493e da41 e63d b942 233e 3b88 e43d
000001b0: 689e 133d 0dfc c3bc ec81 6dbd e1c5 1bbe
000001c0: 4556 853d fe63 343e 76cc 1bbd f537 613e
000001d0: 5cdd a6bd 5f35 16bd 00eb 04be 475d aabc
000001e0: a013 0f3e b87d 613d af20 fabd 9bb6 81bb
000001f0: 2bf7 7abe f6c5 babd de99 bc3d e632 b2bb
00000200: 1f09 1ebe 6153 7cbe d2bb f9bd 4c47 9cbd
00000210: d813 3d3d 15a0 103e f649 813e 128f 65be
00000220: a283 3cbd 576b f9bd 1f30 923d 5a80 8abe
00000230: b60b 5a3d b53c 913e d854 8b3d 402f 72bd
00000240: a857 953e 8ade c13d 49c1 803e e7b8 043d
00000250: d695 853e f0de 6f3c 8e92 22be afc3 47be
00000260: ae57 1abb cc9b c13e c368 a5be 9a42 c1bd
00000270: 59c0 eebd c317 5b3e d0b4 1dbe b397 0ebe
00000280: 7138 b4be 6344 dfbd dfd2 12be 65b0 afbe
00000290: f74c 013e e990 8b3d 5c25 9ebe 2ceb 923e
000002a0: 4c3f 04be 790e 5abe d989 47be 9253 873e
000002b0: 9871 4b3d eff6 64bc 3659 57bd 0bde 4e3d
000002c0: faf3 883e fd5e b53d aa84 803d 8530 8a3c
000002d0: a278 5b3e c7e1 9a3e f2c6 3dbd 1b0a 7bbe
000002e0: 3274 a43e f668 20be 67be 6bbd 0139 773e
000002f0: 01d4 84be 4e0e 1a3e 4b85 3f3e 85f8 9abe
00000300: e74e 8a3e 9f2a 873d 0f46 ef3d 5de1 80bd
00000310: db0e 83bd 0d98 3bbd 6d69 35be 2b0d 3a3b
00000320: a177 7dbd f984 a0be 9139 10be c5d6 bc3d
00000330: d8cc 0a3e c2fe a1be 6335 213e fa71 febd
00000340: 8855 0c3e 5d9e 553e c2dd 0dbe 612b b43e
00000350: 45cc 8b3e b120 1c3e d1e6 b13d d311 d83d
00000360: bf7f 8b3c a700 003d 64ee d93c d5e5 41be
00000370: a47c c53b 36e6 3dbe 5dae b0bb a5fd d9bd
00000380: 2b92 0c3e ae2d 17be 611d b1be e968 a6bd
00000390: 7782 333d 7d2c d73c bfd5 88be d925 813e
000003a0: da8a a53c d183 b8bd 0dae 203d 0fb5 66bd
000003b0: 6d84 97be 20e8 953e e876 67bd dda1 59be
000003c0: e8ba b83a f5b0 c3be 3ab2 12be 428b 85bd
000003d0: 954f 4fbd a160 08bc cbe0 213e eaf7 c8bb
000003e0: 4d37 643e cd85 643e d3bc 42be eee6 3ebe
000003f0: dfd1 80bd b534 dc3d 5f65 14be 5132 763e

sequential_3/dense_14/BiasAdd/ReadVariableOp:0 f4 [10]
0.09038671 -0.102093026 0.065324046 0.003497602 -0.13147312 0.06903571 -0.029059809 -0.17301069
-0.021717483 0.006608597
00000000: ab1c b93d 2616 d1bd 9dc8 853d 0638 653b
00000010: e4a0 06be 9862 8d3d d60e eebc b729 31be
00000020: dde8 b1bc ee8c d83b

sequential_3/dense_13/MatMul/ReadVariableOp:0 f4 [32, 64]
0.020607973 0.24800183 0.26608178 -0.26658985 0.27150765 0.42356727 -0.102977976 -0.041909937
0.4632135 0.11297666 0.20168199 0.07866127 0.15463078 -0.014731701 -0.24042867 -0.4578727
-0.2416859 0.007524526 -0.2601993 0.13078368 -0.059939843 0.09199511 -0.28686845 0.12231758
0.06330822 -0.14993557 -0.19255815 0.21504347 0.19992585 0.19379719 -0.054617207 0.20076796
-0.14621708 0.04140799 -0.30495307 -0.2709149 -0.19336373 -0.35344252 0.1410196 -0.25880265
-0.25046307 0.09828368 -0.21431385 0.18670481 -0.13808922 0.22979566 0.39006454 0.40035817
-0.022068892 -0.008206703 0.22663495 -0.08193981 -0.07655446 -0.11596004 0.22409615 0.08068471
-0.21031296 -0.43192577 -0.0813324 0.33665344 0.1396496 -0.082514964 -0.19427532 -0.1953052
-0.18182966 -0.15801653 -0.4281332 0.4400838 0.08855467 0.25940782 0.50769407 0.4015001
0.23939203 0.24579717 -0.16647334 -0.2014498 -0.055622146 0.3173046 0.15488577 0.1290954
0.31146193 0.055776417 0.3522814 -0.1428679 -0.1900436 -0.08783134 0.0086993445 -0.31061733
0.3528975 0.056476127 -0.12306488 -0.038462795 0.17357026 0.06763539 -0.23905724 -0.025101112
0.37947664 -0.29616043 -0.014084762 0.29354325 -0.39860812 -0.18661499 -0.08762364 -0.2674428
0.12015785 -0.56495327 0.0054059937 0.1770568 0.5260625 0.2289298 0.023000428 0.53116125
-0.35440958 0.15183145 -0.21061486 0.1262053 -0.5058504 -0.25873128 -0.14399977 0.23775575
-0.3387744 0.09398027 0.21884811 0.11075187 0.28507015 -0.1571226 -0.09232415 0.22954765
-0.001867766 0.09220327 0.0022287571 0.08866395 0.28616455 0.09106275 -0.019483784 -0.4470209
0.20786813 -0.11565786 0.12079018 -0.20102128 0.15399367 0.25498646 -0.18808487 -0.1334228
-0.22936171 -0.47570702 0.016140107 -0.36784548 0.05868282 0.020824267 -0.091575876 -0.31256706
0.088009015 0.44435275 -0.4344647 -0.2483427 0.40245 0.058620717 0.1246269 -0.1847483
-0.35017774 -0.13738486 -0.2136859 -0.30498087 0.49282998 -0.012703188 0.26402652 -0.13295907
0.17438123 -0.15635468 0.4850412 -0.42706302 -0.07698207 0.23751363 -0.30107936 -0.026606252
0.12645191 -0.34859446 0.16551076 0.15748258 -0.34380066 -0.15170449 -0.11858168 -0.418982
0.07666564 0.18222968 0.19901 0.27741137 -0.5221574 0.29023376 -0.28258324 0.15623038
-0.18233702 -0.064766936 -0.041955736 0.58044094 -0.01614775 -0.13033988 0.44919017 -0.21768299
-0.022526557 -0.049372304 -0.13388212 -0.4362152 -0.016039878 -0.23636867 -0.15714023 -0.39464733
-0.14700377 -0.46829617 0.09737398 -0.1054454 -0.29736423 0.11993041 0.1268425 0.25276202
0.087160096 0.13268077 0.097470045 -0.3832636 0.123737484 -0.26855516 0.14733377 0.17061263
-0.42071474 -0.067778535 0.021409107 -0.033891317 0.36404783 -0.10679797 0.007148042 -0.19707109
-0.06980759 0.37221387 -0.60372984 0.2097243 0.23270726 -0.08752713 -0.016843142 -0.07332729
0.29786104 -0.107045084 -0.40748116 -0.27128538 -0.4954563 0.07104058 0.062023748 0.0482754
0.29818964 -0.2168335 -0.26426598 -0.1016456 -0.13779368 -0.34633613 -0.04547092 0.29096395
00000000: 0dd2 a83c 31f4 7d3e df3b 883e 777e 88be
00000010: 0d03 8b3e cfdd d83e 1ee6 d2bd c1a9 2bbd
00000020: 522a ed3e 4f60 e73d b985 4e3e 2919 a13d
00000030: 8857 1e3e 3c5d 71bc ef32 76be 4a6e eabe
00000040: 827c 77be 4d90 f63b d838 85be 28ec 053e
00000050: 7b83 75bd ef67 bc3d 6ce0 92be a481 fa3d
00000060: bda7 813d b688 19be f72d 45be 5b34 5c3e
00000070: 5db9 4c3e c572 463e 4bb6 5fbd 1e96 4d3e
00000080: eeb9 15be 6d9b 293d cf22 9cbe 5cb5 8abe
00000090: 2401 46be 6bf6 b4be 7167 103e c881 84be
000000a0: b23c 80be f448 c93d 1775 5bbe 8c2f 3f3e
000000b0: 4367 0dbe 8e4f 6b3e 8ab6 c73e bffb cc3e
000000c0: d2c9 b4bc 6875 06bc fe12 683e 0fd0 a7bd
000000d0: 96c8 9cbd 757c edbd 7679 653e 063e a53d
000000e0: 485c 57be 6025 ddbe 9a91 a6bd d75d ac3e
000000f0: 4e00 0f3e 9bfd a8bd 1cf0 46be 16fe 47be
00000100: 8e31 3abe 16cf 21be 4634 dbbe aa52 e13e
00000110: 275c b53d 1ad1 843e 3df8 013f 6c91 cd3e
00000120: 2f23 753e 41b2 7b3e fd77 2abe db48 4ebe
00000130: 0cd4 63bd c075 a23e 609a 1e3e 9631 043e
00000140: f077 9f3e d075 643d 3a5e b43e f64b 12be
00000150: ca9a 42be ebe0 b3bd b287 0e3c 3c09 9fbe
00000160: fbae b43e 8353 673d 7109 fcbd 2a8b 1dbd
00000170: 67bc 313e 6c84 8a3d 6ccb 74be d9a0 cdbc
00000180: c34a c23e 57a2 97be c6c3 66bc 4d4b 963e
00000190: 5d16 ccbe 0018 3fbe 0674 b3bd 43ee 88be
000001a0: 5215 f63d c7a0 10bf c324 b13b 614e 353e
000001b0: 08ac 063f 936c 6a3e 656b bc3c 2ffa 073f
000001c0: 2c75 b5be b479 1b3e 6cab 57be f63b 013e
000001d0: 697f 01bf 6d78 84be ad74 13be 3e76 733e
000001e0: d773 adbe ba78 c03d b819 603e e0d1 e23d
000001f0: b7f4 913e bfe4 20be 7214 bdbd 8a0e 6b3e
00000200: d4cf f4ba 11d5 bc3d 5710 123b 7295 b53d
00000210: 2984 923e 1b7f ba3d 759c 9fbc ecdf e4be
00000220: 62db 543e 07de ecbd d860 f73d 86d8 4dbe
00000230: 84b0 1d3e 968d 823e 5299 40be fd9f 08be
00000240: ccdd 6abe df8f f3be 4238 843c 3e56 bcbe
00000250: 665d 703d a797 aa3c 228c bbbd ca08 a0be
00000260: 123e b43d 3482 e33e 2872 debe 8c4d 7ebe
00000270: ed0d ce3e 471c 703d 633c ff3d a92e 3dbe
00000280: 7f4a b3be 9eae 0cbe 7ad0 5abe 7426 9cbe
00000290: 3654 fc3e 0821 50bc 7c2e 873e 6c26 08be
000002a0: fe90 323e 711b 20be 5257 f83e 01a8 dabe
000002b0: c7a8 9dbd c636 733e 1327 9abe 5bf5 d9bc
000002c0: 9c7c 013e f97a b2be a77b 293e 1d43 213e
000002d0: a406 b0be 6c58 1bbe f4da f2bd cf84 d6be
000002e0: e002 9d3d 6b9a 3a3e 47c9 4b3e dd08 8e3e
000002f0: 1bac 05bf 8599 943e c0ae 90be dbfa 1f3e
00000300: 8eb6 3abe 87a4 84bd c7d9 2bbd c797 143f
00000310: 4948 84bc d177 05be 41fc e53e 4ae8 5ebe
00000320: 9d89 b8bc 9d3a 4abd 6518 09be 9957 dfbe
00000330: 1066 83bc a10a 72be 5ee9 20be 370f cabe
00000340: 2888 16be 84c4 efbe 026c c73d c2f3 d7bd
00000350: 2040 98be 139e f53d 00e3 013e 066a 813e
00000360: fe80 b23d 78dd 073e 609e c73d 203b c4be
00000370: 146a fd3d 1080 89be aade 163e 14b5 2e3e
00000380: ec67 d7be 79cf 8abd 2762 af3c 9fd1 0abd
00000390: 7a64 ba3e e5b8 dabd 1f3a ea3b 01cd 49be
000003a0: 48f7 8ebd d192 be3e 0a8e 1abf f8c1 563e
000003b0: d04a 6e3e 6d41 b3bd a1fa 89bc 9e2c 96bd
000003c0: 3e81 983e 743a dbbd 5fa1 d0be ebe5 8abe
000003d0: 73ac fdbe b97d 913d 9d0c 7e3d 6dbc 453d
000003e0: 50ac 983e 9a09 5ebe df4d 87be 912b d0bd
000003f0: c919 0dbe f852 b1be b73f 3abd 3af9 943e

sequential_3/dense_13/BiasAdd/ReadVariableOp:0 f4 [64]
-0.10836102 0.16760844 -0.09491067 0.08256678 0.08671688 0.24797547 -0.035176985 -0.06555798
0.14753972 0.12856112 -0.11816021 0.09416247 0.15610838 -0.031343907 -0.12535591 -0.043751627
-0.12614 -0.07421912 -0.17977707 0.08573361 -0.013109241 -0.114432454 0.002713391 -0.13448404
0.047791347 0.0092039835 0.07535297 -0.109076135 0.21626739 -0.13902698 -0.10428746 -0.12948564
0.13583982 0.18588999 -0.058443964 -0.08802363 -0.12176328 -0.00013629181 -0.21399733 -0.021224609
0.117434666 -0.08637435 0.082494244 -0.19721931 0.04585837 -0.10059195 0.10777915 0.05280707
0.10009367 -0.18479565 0.0 -0.0703081 -0.12314961 0.085028455 -0.14494736 0.05100437
0.14394447 -0.044307977 -0.019597033 0.028533649 0.21624957 -0.072501205 0.0007002814 0.12378832
00000000: 62ec ddbd 8ca1 2b3e 8660 c2bd c618 a93d
00000010: 9f98 b13d 48ed 7d3e be15 10bd 4343 86bd
00000020: a714 173e 87a5 033e fbfd f1bd 41d8 c03d
00000030: e0da 1f3e 7862 00bd 4d5d 00be e834 33bd
00000040: d82a 01be 3200 98bd 7b17 38be 1a95 af3d
00000050: 24c8 56bc 905b eabd 26d3 313b 2fb6 09be
00000060: dcc0 433d 4ecc 163c a852 9a3d 4f63 dfbd
00000070: 3375 5d3e 175d 0ebe aa94 d5bd e297 04be
00000080: 9819 0b3e f259 3e3e f062 6fbd bc45 b4bd
00000090: 075f f9bd 8ee9 0eb9 1e22 5bbe 3bdf adbc
000000a0: 9681 f03d 09e5 b0bd bef2 a83d dcf3 49be
000000b0: fcd5 3b3d 2703 cebd 51bb dc3d 3a4c 583d
000000c0: e9fd cc3d 123b 3dbe 0000 0000 b1fd 8fbd
000000d0: dd35 fcbd 6623 ae3d 156d 14be f5e9 503d
000000e0: 2e66 133e 487c 35bd f589 a0bc 66bf e93c
000000f0: 8770 5d3e 837b 94bd 1793 373a bb84 fd3d

sequential_3/dense_12/MatMul/ReadVariableOp:0 f4 [23, 32]
0.102117226 0.2063354 -0.12707053 0.07047933 0.07888549 0.13235615 0.0131755695 -0.53072864
-0.47954574 0.25574633 -0.53424275 0.20581205 0.28426927 0.3809859 -0.31352857 -0.024631228
-0.23858769 -0.008386335 -0.44186148 0.3246346 0.027550895 -0.30562764 0.18883482 -0.22982877
-0.15725458 0.18687724 0.052374132 -0.41600513 0.13862745 0.5312445 0.18101566 0.33028206
0.17128101 0.15403928 0.04330311 -0.209319 -0.23622023 0.30290946 0.42691183 0.5941756
-0.23370211 -0.22911009 0.4807021 0.12092236 -0.44385087 -0.15517437 0.5911083 0.30050504
0.10309541 0.56813234 -0.09907007 0.007535191 0.3731046 0.28996056 0.15735194 0.15718248
-0.04267366 -0.06899425 0.18553801 -0.18949865 -0.4619074 -0.37108892 -0.27228114 -0.21485978
-0.19695795 -0.09484998 0.30554372 -0.35776237 -0.1756481 0.21843259 0.33269194 0.5056728
-0.03611938 0.28515387 0.014130441 0.46465176 -0.14609094 0.11931105 0.43171066 0.1179324
-0.42339182 -0.03359991 -0.06006378 -0.06583418 0.24657021 -0.14247656 0.6072292 0.14393643
0.32101333 -0.13551721 0.11143912 -0.54217917 0.17888087 -0.22851652 -0.27160853 -0.53845066
0.009204238 -0.20926023 -0.0046503386 0.042674076 0.276509 0.15874209 0.1775121 -0.294393
0.4697148 0.21872391 -0.042655505 0.20148404 -0.47552714 -0.20114389 0.7750417 0.29248402
-0.07655727 -0.48469636 -0.21247628 0.20839044 0.023718517 -0.47162202 0.3692747 0.19599156
-0.17326403 0.10779501 0.13799788 -0.40458515 -0.014331729 0.30108696 0.42475483 -0.3229019
-0.12380669 0.39108863 -0.4735591 0.41881022 -0.21862917 0.48582345 0.22926624 0.31178233
0.0635245 -0.2827265 0.25218162 0.118363924 0.13707152 0.015271959 0.3285347 -0.35168615
0.14686966 0.322796 -0.64455247 -0.30866212 -0.27576602 0.10460198 -0.42712006 0.29004034
-0.11122845 0.039622728 0.18964548 -0.25568086 -0.2216966 0.5237832 0.21464577 -0.48354095
0.63133067 -0.38417596 0.6789836 0.560753 0.06288872 0.32720685 0.36453536 0.5717249
0.011383735 0.1434884 0.4525272 0.05551227 -0.18657327 0.0093291495 -0.034456413 0.18861876
-0.25024715 -0.15509503 -0.3556675 -0.008802346 -0.09881173 0.489846 0.06644234 -0.31738472
0.06693311 -0.41720954 0.48249146 -0.109533936 0.2602709 0.032993175 -0.19455472 -0.32147855
0.5145267 -0.3603018 0.007943993 -0.3672992 0.041121896 -0.09989658 0.09012616 -0.18497461
0.085952505 0.048498712 -0.013516167 -0.11836609 -0.625328 -0.25831544 0.11466935 0.24492654
-0.59622777 -0.1585791 0.1222906 0.4078319 0.37899986 -0.17174956 -0.101055995 0.17130959
0.11057515 0.05710179 0.5042309 0.5312535 0.018883888 0.5043724 0.16824971 -0.31064785
-0.22113061 0.0315115 0.5036964 -0.44175738 -0.18809798 0.2235115 -0.051540364 0.34602258
-0.11014765 0.2367204 0.1682051 0.06630401 -0.02686517 -0.4674235 -0.51984876 -0.36047906
0.033242382 -0.025340041 0.33647224 -0.016056411 0.16251838 0.30415896 -0.24646708 -0.52121955
0.34132817 -0.40504244 0.5631307 0.6725472 0.32689786 0.11402114 0.0637915 -0.082027234
00000000: d622 d13d 9649 533e c71e 02be 7857 903d
00000010: b78e a13d 5f88 073e 58de 573c d5dd 07bf
00000020: 0587 f5be 2ff1 823e 22c4 08bf 65c0 523e
00000030: be8b 913e 9510 c33e d186 a0be 6ec7 c9bc
00000040: 5550 74be d766 09bc ab3b e2be 8236 a63e
00000050: 6ab2 e13c 3a7b 9cbe ea5d 413e 3c58 6bbe
00000060: 5807 21be bf5c 3f3e 4286 563d a0fe d4be
00000070: 5bf4 0d3e a4ff 073f 2b5c 393e bb1a a93e
00000080: 4a64 2f3e 79bc 1d3e 9a5e 313d b857 56be
00000090: b7e3 71be f316 9b3e 3094 da3e e41b 183f
000000a0: 9b4f 6fbe d69b 6abe 961e f63e 24a6 f73d
000000b0: 6c40 e3be 08e6 1ebe e052 173f ccdb 993e
000000c0: b023 d33d 1f71 113f 40e5 cabd c3e9 f63b
000000d0: 9107 bf3e b675 943e de20 213e 72f4 203e
000000e0: 93ca 2ebd db4c 8dbd adfd 3d3e ef0b 42be
000000f0: 207f ecbe 5eff bdbe 6f68 8bbe 3404 5cbe
00000100: 58af 49be b540 c2bd 3a70 9c3e a12c b7be
00000110: 18dd 33be cbac 5f3e 9956 aa3e c673 013f
00000120: eaf1 13bd b0ff 913e 5d83 673c d6e6 ed3e
00000130: dd98 15be 5a59 f43d 2e09 dd3e 8b86 f13d
00000140: d0c6 d8be 0fa0 09bd 7005 76bd 12d4 86bd
00000150: e77c 7c3e 60e5 11be 5f73 1b3f 1264 133e
00000160: dc5b a43e 06c5 0abe 313a e43d 41cc 0abf
00000170: 8c2c 373e 3c00 6abe 4610 8bbe e7d7 09bf
00000180: 5fcd 163c 5048 56be de61 98bb 03cb 2e3d
00000190: 9692 8d3e 498d 223e bbc5 353e aeba 96be
000001a0: 757e f03e 29f9 5f3e 8ab7 2ebd d551 4e3e
000001b0: 4b78 f3be aaf8 4dbe 2269 463f 77c0 953e
000001c0: 0fca 9cbd 1f2a f8be 6293 59be 4e64 553e
000001d0: 564d c23c 7178 f1be 9311 bd3e 03b2 483e
000001e0: 206c 31be a1c3 dc3d 514f 0d3e c925 cfbe
000001f0: a1cf 6abc 1228 9a3e 7779 d93e 6653 a5be
00000200: 5d8e fdbd c53c c83e 5776 f2be 4b6e d63e
00000210: 53e0 5fbe dabd f83e c5c4 6a3e efa1 9f3e
00000220: 2219 823d 87c1 90be f31d 813e c968 f23d
00000230: 7a5c 0c3e 3d37 7a3c b335 a83e 3510 b4be
00000240: 0065 163e 8445 a53e 6401 25bf f608 9ebe
00000250: 3431 8dbe 9039 d63d 7baf dabe 2b80 943e
00000260: becb e3bd 714b 223d 6d32 423e 9ae8 82be
00000270: 6f04 63be a816 063f 1acc 5b3e ae92 f7be
00000280: e39e 213f b6b2 c4be dfd1 2d3f 828d 0f3f
00000290: cdcb 803d a887 a73e 61a4 ba3e 905c 123f
000002a0: d882 3a3c a0ee 123e a5b1 e73e d660 633d
000002b0: 100d 3fbe 4ad9 183c 2b22 0dbd 4725 413e
000002c0: 6520 80be 3bd1 1ebe 0d1a b6be b737 10bc
000002d0: ce5d cabd 18cd fa3e ec12 883d 4080 a2be
000002e0: 3a14 893d 7d9c d5be 1f09 f73e 5453 e0bd
000002f0: 3a42 853e da23 073d 5a39 47be d698 a4be
00000300: 06b8 033f 7a79 b8be 8627 023c a40e bcbe
00000310: 6f6f 283d 9496 ccbd 1094 b83d fc69 3dbe
00000320: de07 b03d 96a6 463d ea72 5dbc ec69 f2bd
00000330: 7f15 20bf ec41 84be c4d7 ea3d 06ce 7a3e
00000340: 62a2 18bf 8f62 22be 7e73 fa3d 58cf d03e
00000350: 450c c23e 1edf 2fbe 72f6 cebd c86b 2f3e
00000360: 3975 e23d 91e3 693d 4715 013f 3b00 083f
00000370: 62b2 9a3c 8d1e 013f a749 2c3e 3c0d 9fbe
00000380: 1070 62be 3412 013d 3ff2 003f 062e e2be
00000390: c29c 40be 33e0 643e fd1b 53bd df29 b13e
000003a0: 1795 e1bd d566 723e f53d 2c3e 66ca 873d
000003b0: 5814 dcbc 2252 efbe cf14 05bf b690 b8be
000003c0: 2a29 083d eb95 cfbc 1746 ac3e bc88 83bc
000003d0: 386b 263e b9ba 9b3e de61 7cbe a56e 05bf
000003e0: 91c2 ae3e b961 cfbe 5529 103f 0e2c 2c3f
000003f0: 285f a73e ea83 e93d 1ea5 823d e5fd a7bd

sequential_3/dense_12/BiasAdd/ReadVariableOp:0 f4 [32]
0.12481443 -0.028802156 -0.023958137 0.030477844 0.0167022 0.10019298 0.09441332 0.0
-0.06697479 0.01111685 -0.046144035 0.13508423 -0.17904419 -0.08654746 0.3415169 0.08201247
-0.13751231 -0.020650413 -0.07556072 0.023202633 0.14335588 -0.014829427 0.017444622 0.079832956
-0.035038944 -0.026077814 0.17819954 0.090744875 0.08386334 0.043994814 0.0012193789 -0.10267078
00000000: b59e ff3d 80f2 ebbc db43 c4bc acac f93c
00000010: 0dd3 883c fa31 cd3d c55b c13d 0000 0000
00000020: 142a 89bd 7323 363c 8701 3dbd 8553 0a3e
00000030: 5c57 37be cb3f b1bd 4edb ae3e 27f6 a73d
00000040: 07d0 0cbe 0e2b a9bc 94bf 9abd 7313 be3c
00000050: e2cb 123e 20f7 72bc 06e8 8e3c 767f a33d
00000060: ff84 0fbd 24a1 d5bc f179 363e 73d8 b93d
00000070: 8bc0 ab3d e833 343d 91d3 9f3a 0f45 d2bd
